AutogluonModels/ag-20230828_033437/models/NeuralNetFastAI/model-internals.pkl (torch, 163363 bytes, 16 tensors)

weight f4 [49]
000000 1a 0d 80 3f 1a 0d 80 3f 14 0d 80 3f cd e5 7f 3f
       1.0003998 1.0003998 1.0003991 0.99960023
000010 19 0d 80 3f 1a 0d 80 3f d7 e5 7f 3f 19 0d 80 3f
       1.0003997 1.0003998 0.9996008 1.0003997
000020 d3 e5 7f 3f cc e5 7f 3f cb e5 7f 3f cc e5 7f 3f
       0.9996006 0.9996002 0.9996001 0.9996002
000030 05 e6 7f 3f 17 0d 80 3f 0e 0d 80 3f 18 0d 80 3f
       0.99960357 1.0003995 1.0003984 1.0003996
000040 ce e5 7f 3f 1a 0d 80 3f 1a 0d 80 3f 1b 0d 80 3f
       0.9996003 1.0003998 1.0003998 1.0004
000050 cc e5 7f 3f 03 e6 7f 3f 18 0d 80 3f 16 0d 80 3f
       0.9996002 0.99960345 1.0003996 1.0003994
000060 17 0d 80 3f 1b 0d 80 3f 18 0d 80 3f cb e5 7f 3f
       1.0003995 1.0004 1.0003996 0.9996001
000070 ee 0c 80 3f ce e5 7f 3f cf e5 7f 3f ce e5 7f 3f
       1.0003946 0.9996003 0.99960035 0.9996003
000080 35 e6 7f 3f 19 0d 80 3f cb e5 7f 3f 1a 0d 80 3f
       0.99960643 1.0003997 0.9996001 1.0003998
000090 d0 e5 7f 3f 18 0d 80 3f ce e5 7f 3f 1b 0d 80 3f
       0.9996004 1.0003996 0.9996003 1.0004
0000a0 07 0d 80 3f 1a 0d 80 3f 17 0d 80 3f d8 e5 7f 3f
       1.0003976 1.0003998 1.0003995 0.9996009
0000b0 ce e5 7f 3f cd e5 7f 3f cb e5 7f 3f cb e5 7f 3f
       0.9996003 0.99960023 0.9996001 0.9996001
0000c0 d2 e5 7f 3f
       0.9996005

bias f4 [49]
000000 b5 9c d1 b9 6f 31 d1 39 a3 a1 d1 b9 31 85 d1 b9
       -0.00039980342 0.00039900417 -0.00039984015 -0.00039962822
000010 8a bb d0 39 f1 19 cf b9 4b 90 d1 39 95 56 d1 39
       0.0003981258 -0.00039501445 0.00039971093 0.00039928095
000020 15 ab cf b9 a5 86 d1 b9 8b 74 d1 39 ef e1 ce 39
       -0.00039609583 -0.00039963904 0.00039950418 0.00039459715
000030 7a 87 d1 b9 9b ea d0 b9 57 83 d1 b9 c7 39 d1 39
       -0.00039964524 -0.00039847646 -0.00039961442 0.00039906634
000040 cd 9b d1 b9 0e a1 d1 39 24 97 d1 39 1e 71 d0 b9
       -0.00039979667 0.00039983582 0.00039976195 -0.0003975713
000050 7a 91 d1 39 ce 83 d1 b9 c5 12 d1 b9 a2 4c d1 39
       0.00039971975 -0.0003996179 -0.0003987757 0.00039920682
000060 31 89 d0 b9 3a 9c d1 b9 45 25 d1 39 e1 78 d1 39
       -0.00039775067 -0.00039979984 0.00039891354 0.00039953648
000070 9b 8c d1 b9 b9 99 ce b9 d5 1d d1 39 98 a0 ce 39
       -0.00039968346 -0.00039405914 0.00039885813 0.00039411034
000080 6b 39 d1 39 9b 6c d1 b9 65 9e d1 39 d5 a3 d1 b9
       0.00039906366 -0.00039944504 0.000399816 -0.0003998565
000090 e9 50 d0 39 95 a0 d1 39 cf 9e d1 b9 88 8d d1 b9
       0.00039733134 0.0003998323 -0.00039981908 -0.00039969035
0000a0 db 12 d1 b9 bb b6 cf b9 c1 9a d1 b9 48 7b d1 39
       -0.00039877635 -0.00039618262 -0.00039978887 0.00039955438
0000b0 9c 6a d1 b9 c2 d7 d0 b9 ce a1 bf b9 18 28 d1 39
       -0.00039943017 -0.00039833604 -0.00036550913 0.0003989346
0000c0 3b 92 d1 b9
       -0.00039972537

running_mean f4 [49]
000000 58 18 bf 3b ab cf 21 bc de 38 cf 3b e5 b3 b4 bb
       0.0058317594 -0.009876172 0.006323918 -0.005514609
000010 ab da f8 bb 32 09 1f bc 66 87 51 bb f6 c7 6c bb
       -0.0075944266 -0.009706782 -0.0031971573 -0.0036129928
000020 9a af e7 bb b5 e2 d0 ba b6 e9 ee bb 9e bd b2 bb
       -0.007070494 -0.0015936705 -0.007291044 -0.005454733
000030 6a 03 08 bc 9e 2f 02 bc ea ee ec bb 0e 8d ce bb
       -0.008301595 -0.007945923 -0.007230629 -0.006303436
000040 08 87 f1 bb a8 ce ad bb c6 73 cb ba f6 5c 87 bb
       -0.0073708333 -0.0053041764 -0.0015522174 -0.004130955
000050 b0 01 9e 3b b4 9d 20 bc df c6 2f 3c d2 85 90 bb
       0.0048219785 -0.009803224 0.010728567 -0.004410484
000060 13 6a d0 bb 98 eb c9 bb 7d 20 10 bc 34 29 15 3c
       -0.0063603013 -0.006162118 -0.008796808 0.009104062
000070 20 a8 e5 bb 9b d8 bd bb fa d0 d0 bb ea 32 01 bc
       -0.0070085675 -0.0057936436 -0.006372568 -0.007885674
000080 30 7d 10 bc 83 a6 e9 ba 40 58 d3 bb 12 36 a9 bb
       -0.0088189095 -0.0017826114 -0.006449729 -0.0051639164
000090 cd 61 75 bc 93 fd 28 bc d0 6d 03 3c 9a 32 75 bb
       -0.014976931 -0.010314363 0.008021787 -0.0037414194
0000a0 17 47 a5 bb 4d 1c 87 bb 2e 39 0e bc ed c1 f3 3b
       -0.005043875 -0.0041232468 -0.008680625 0.0074388892
0000b0 04 82 a8 bb 59 0e 88 bb 96 ce a5 bb 30 3c 9a bb
       -0.005142452 -0.004152101 -0.0050600274 -0.004706882
0000c0 a7 14 0e bc
       -0.008671916

running_var f4 [49]
000000 b2 ee 80 3f 2f 31 7f 3f af f4 81 3f 82 f3 82 3f
       1.0072844 0.99684423 1.0152797 1.0230563
000010 b8 9e 77 3f a1 bf 80 3f 07 44 81 3f cf e0 7f 3f
       0.9672656 1.005848 1.0098885 0.99952406
000020 7b c8 80 3f 4a 7c 81 3f 4d 01 81 3f b7 51 80 3f
       1.0061182 1.0116055 1.0078522 1.0024937
000030 b1 4a 81 3f e9 5b 80 3f ac c2 80 3f ff c7 81 3f
       1.0100919 1.0028049 1.0059409 1.0139159
000040 bc fe 80 3f 2b 12 80 3f 8a 85 80 3f 88 76 82 3f
       1.0077739 1.0005544 1.0040753 1.0192423
000050 00 00 84 3f 54 45 80 3f 2c a0 77 3f 15 c0 7f 3f
       1.03125 1.0021157 0.9672878 0.9990247
000060 72 ee 80 3f fe 43 81 3f 6c 88 80 3f 70 1f 7a 3f
       1.0072768 1.0098875 1.0041633 0.9770422
000070 13 ae 81 3f 2c cf 80 3f d2 f0 80 3f d9 c4 81 3f
       1.0131248 1.0063224 1.0073493 1.0138198
000080 7e 85 80 3f 4a 29 80 3f 7f 77 80 3f b6 7e 81 3f
       1.0040739 1.00126 1.0036467 1.0116794
000090 5e e2 82 3f cc 70 7c 3f e8 a1 81 3f a1 23 7b 3f
       1.0225332 0.98609614 1.0127535 0.9810124
0000a0 83 b1 7c 3f 40 2f 7f 3f 10 02 7d 3f 1e 61 81 3f
       0.9870836 0.9968147 0.9883127 1.0107763
0000b0 d6 25 7f 3f 97 d5 7b 3f 30 9b 7c 3f 99 e7 7f 3f
       0.9966711 0.9837279 0.986743 0.99962765
0000c0 ae eb 7c 3f
       0.9879712

weight f4 [200, 49]
000000 81 22 31 ba 04 21 9c 3d cd 9d f1 bd 73 1c d8 bd
       -0.00067571556 0.07623485 -0.11797676 -0.10552301
000010 fa e5 5f bd b8 8b 1e 3d 19 4c 1f bb 46 2b e7 3d
       -0.054662682 0.038707465 -0.0024306832 0.11287551
000020 58 2a 49 bc 31 78 1c 3d 96 33 2f bd eb c2 e2 bc
       -0.012278162 0.03820056 -0.042773806 -0.027680835
000030 13 58 0b be 22 f2 c0 bd 75 92 6f bd 67 7e ba 3b
       -0.13607816 -0.09421183 -0.05848928 0.005691338
000040 57 f6 68 3d 65 3b b0 3d 1e 87 c5 bd 94 2f 7d bd
       0.056875553 0.086050786 -0.09644912 -0.061812952
000050 11 01 56 3d f2 c3 f3 3d a9 91 ed bc ac c0 db 3d
       0.05224711 0.11902608 -0.02900012 0.107301086
000060 05 5b b9 bc 5e 36 7e 3c f3 dd 04 3e 86 4b 07 be
       -0.02262641 0.015515892 0.12975292 -0.13212404
000070 ac 5d b7 bd 02 80 12 bd 58 73 62 bd 65 99 fd 3d
       -0.08953413 -0.03576661 -0.05528578 0.12382773
000080 cb d1 bc bd 95 7f 87 bd 5e 38 cd bd 03 6a 09 be
       -0.09219702 -0.06616131 -0.10020517 -0.13419347
000090 b8 96 ab bd 9d 4f fc 3d 63 5e 83 3d dc 97 8e 3d
       -0.08378357 0.123198725 0.06414487 0.069625586
0000a0 ca a2 01 3c b2 cf 96 bd 77 43 c9 3c 26 2d 08 be
       0.007912347 -0.073638335 0.024568303 -0.13298473
0000b0 56 95 d2 bd c5 02 96 bd 56 69 b9 3d 27 5a ac 3d
       -0.1028239 -0.07324747 0.09053294 0.08415633
0000c0 9c ef 80 bd ce a2 b5 bb 6d ef bb 3d ff d5 11 3e
       -0.06295702 -0.0055430895 0.09176526 0.1424179
0000d0 5b 98 66 3d 33 5f a1 3c 60 fb c4 3d 8a 72 ab bd
       0.05629764 0.019698715 0.096182585 -0.08371456
0000e0 d0 cc d6 3c 75 03 e2 bd 41 98 cb bd 6d 56 96 bd
       0.02622071 -0.110358156 -0.099411495 -0.07340703
0000f0 ea 32 85 3d 2a f5 6c 3d 83 7c ac bd 27 69 32 3d
       0.06503852 0.057850994 -0.08422186 0.043557312
000100 68 cd 9f 3d b3 88 90 bc 19 d5 bf 3b 91 f2 05 3d
       0.0780285 -0.017643308 0.0058542606 0.032702032
000110 65 af b4 3d 1d df 0c 3e 1e a5 e0 bd d3 cc 54 bd
       0.08822516 0.13756986 -0.109689936 -0.051953148
000120 33 54 64 3d 00 98 f1 3d 4b c7 fd 3d aa ab 00 3e
       0.05574436 0.1179657 0.12391528 0.12565485
000130 9c 2d ec 3c ea 98 fd bd 11 d1 50 3c 45 d9 b7 bd
       0.028830342 -0.12382682 0.012745158 -0.08976988
000140 af f1 07 be 51 91 01 3e ec a3 dd 3d e5 83 11 be
       -0.13275789 0.1265309 0.10822281 -0.1421047
000150 1b c6 d7 3c 62 e0 c1 bc 1d 4f bd bc 67 1b 85 bd
       0.026339581 -0.023666564 -0.023109013 -0.06499367
000160 c6 61 5f 3d f9 78 ac bd f3 de 54 3d cd c5 94 3d
       0.054536603 -0.08421511 0.051970433 0.0726429
000170 03 43 d2 3d 8c 6d 5c 3d e2 5f 10 be bb f8 bc bd
       0.10266688 0.05381541 -0.14099076 -0.09227129
000180 ea e5 92 3d 10 36 f8 3c 5d 69 e3 bd 4e 49 a9 bd
       0.07172759 0.030299217 -0.11104081 -0.08265935
000190 6c 35 09 3e 0b 52 c4 3d 77 61 80 bd 7e e8 14 bd
       0.13399285 0.09585961 -0.0626859 -0.036354534
0001a0 8b c2 0b be 77 79 42 bb 28 24 dd bd a1 7e e2 bd
       -0.13648431 -0.002967445 -0.10797912 -0.11059309
0001b0 4d 83 07 bc b2 70 ac 3c 13 45 71 bd 3b c9 ac 3d
       -0.008271051 0.021049831 -0.058903765 0.08436819
0001c0 ea db b2 bd 55 53 04 3e 06 ae c7 3d e2 e6 f5 bd
       -0.087333515 0.12922414 0.09749989 -0.12006928
0001d0 f7 43 13 bd 67 25 c6 3b 92 7e a7 3c 1b 69 0c 3d
       -0.03595349 0.006046939 0.020446096 0.034279924
0001e0 9b fd 63 3d ed be 12 3c b0 ef 8d bd 12 41 8b 3d
       0.05566178 0.008956653 -0.069304824 0.067995206
0001f0 9e ea 0b be 7f 97 ac bd 74 d9 10 bd 76 b2 8d bd
       -0.13663718 -0.08427333 -0.03536363 -0.06918804
000200 37 11 4b bd b8 fb ee bd 20 ad f5 bc ba e2 f6 3c
       -0.049576964 -0.11669105 -0.029989779 0.030137409
000210 f3 6a bf bd d5 53 fd bb 3a 41 d2 3d 98 17 6a bc
       -0.09346571 -0.007730941 0.10266347 -0.014287852
000220 d7 25 8f 3b f4 6d 43 bc ba 19 f0 3c bf 35 b9 3d
       0.0043685245 -0.01192807 0.029309142 0.090434544
000230 80 2a 0a 3e a8 9d ba 3d e4 4a 0b 3e 01 bd 22 bc
       0.13492775 0.09112102 0.13602787 -0.009932757
000240 ed 00 03 be bf 83 8b bd 10 6a c6 3d 00 86 ab ba
       -0.12793322 -0.06812238 0.096881986 -0.00130862
000250 f2 9a 90 bd b3 62 df bd 6f 4f 09 be 08 23 f6 bd
       -0.070608035 -0.10907497 -0.13409208 -0.120184004
000260 6a a4 f0 bc 0d a1 9f 3d 8a 5b 9d 3d 98 7d 0d be
       -0.029375274 0.0779439 0.07683475 -0.13817441
000270 d7 ae b5 3d 7c c1 e5 bd 79 ae fa bc f3 e3 6e bd
       0.08871239 -0.11218545 -0.030600773 -0.058322858
000280 85 ae e4 bc 67 0b e9 bc f6 ac 03 be dc 6e fd bd
       -0.027915249 -0.02844782 -0.12858948 -0.123746604
000290 58 65 ba bc 81 e3 bd 3a d4 b8 85 bd ff 02 5e 3d
       -0.022753403 0.0014487357 -0.06529394 0.054202076
0002a0 e4 12 04 be 7d 79 24 bc b2 3c 00 3e a8 4e 70 bd
       -0.12897831 -0.010038731 0.12523153 -0.058668762
0002b0 32 b0 03 3e ec 46 52 3d a6 68 04 be 6d 4b b8 3d
       0.12860182 0.051337168 -0.12930545 0.08998761
0002c0 3c 4f 8a bc 02 6c 83 bd 22 24 e9 3d d5 3d ed bd
       -0.016883485 -0.06417085 0.11383845 -0.11584059
0002d0 d8 cd 80 3c 6c bf f1 bc 59 bb d1 3d 42 f8 24 3d
       0.015723154 -0.029510222 0.10240812 0.04027582
0002e0 29 66 8d 3d f7 1f 4d 3d 79 13 0b bd 14 d8 f2 bc
       0.06904251 0.050079312 -0.033954117 -0.02964405
0002f0 c0 48 f0 bd 54 58 9f 3d fd 1b e9 3d 82 00 c9 3d
       -0.11732626 0.07780519 0.113822915 0.0981455
000300 ee 8d cd bd 20 de dd 3b b6 6c cd bd dc 3c a0 bd
       -0.100368366 0.006770864 -0.100305006 -0.07824108
000310 cb aa a9 bd aa 57 46 3d 36 2a af bd dd 11 32 bb
       -0.08284529 0.048423447 -0.08552973 -0.0027171292
000320 81 bc d1 3b ec 69 bd 3d 00 f9 dd bd 0e ab c9 bd
       0.0064006452 0.092487186 -0.108385086 -0.09847079
000330 9c 12 a9 bd 21 fa cb 3d 61 b5 50 bd de 97 f7 3d
       -0.082555026 0.09959818 -0.050954226 0.12089513
000340 06 39 55 3d f9 6f 97 3c 00 d0 2e ba 4d 8d ea bc
       0.052056335 0.01848601 -0.00066685677 -0.02863183
000350 f1 16 96 3c 26 40 07 bd bf f6 b7 ba da 95 98 3c
       0.018321486 -0.03302016 -0.0014035328 0.018626142
000360 a0 0c e4 bd f3 29 9a bd 0e 6e eb 3d a6 40 ee bd
       -0.111352205 -0.075275324 0.11495601 -0.116334245
000370 09 9d 2e bc 3d 4d 10 3e c4 bc 51 3d 26 87 91 3b
       -0.010657557 0.14091964 0.05120541 0.00444116
000380 d6 5c fe bd 5f 1d 90 3d e1 35 d1 bd bd bc 27 bd
       -0.12420051 0.07036852 -0.10215355 -0.04095148
000390 18 f6 45 bd d3 42 b0 bc 3d 69 98 3a 28 7f f0 3d
       -0.048330396 -0.02151624 0.0011628043 0.11743003
0003a0 11 da 8e 3c 02 9e 02 3e 43 c9 b3 3d 20 c9 b9 bd
       0.017437967 0.12755588 0.08778622 -0.09071565
0003b0 75 66 82 3d a7 a2 cf bd 76 a2 79 bd 90 bc 2d 3d
       0.063671984 -0.10138445 -0.06094595 0.042416155
0003c0 41 92 3f 3d fa ac da 3d e7 00 3e bd 39 63 33 b9
       0.046770338 0.10677524 -0.04638758 -0.00017107734
0003d0 ac cd 95 3d 0f 10 0d be 4f b4 d2 3d b4 1d f1 bd
       0.073146194 -0.13775657 0.102882974 -0.117732435
0003e0 1b ab cd 3a 23 37 ca bc 41 46 99 bd 1d 67 97 3c
       0.0015691252 -0.024684494 -0.07484103 0.018481785
0003f0 fc 1c f1 3d fd ae 2c bd ed 83 ae bd 3c 08 5a bd
       0.117731065 -0.04215907 -0.085212566 -0.05323051

weight f4 [200]
000000 d9 e5 7f 3f d3 e5 7f 3f d2 e5 7f 3f dc e5 7f 3f
       0.99960095 0.9996006 0.9996005 0.9996011
000010 15 0d 80 3f 1a 0d 80 3f 1a 0d 80 3f 15 0d 80 3f
       1.0003992 1.0003998 1.0003998 1.0003992
000020 d1 e5 7f 3f f4 e5 7f 3f 19 0d 80 3f 17 0d 80 3f
       0.99960047 0.99960256 1.0003997 1.0003995
000030 18 0d 80 3f ce e5 7f 3f 18 0d 80 3f 86 0c 80 3f
       1.0003996 0.9996003 1.0003996 1.0003822
000040 18 0d 80 3f 18 0d 80 3f 10 0d 80 3f 12 0d 80 3f
       1.0003996 1.0003996 1.0003986 1.0003989
000050 0f 0d 80 3f 80 ea 7f 3f 9f 0c 80 3f d4 e5 7f 3f
       1.0003985 0.99967194 1.0003852 0.99960065
000060 d9 e5 7f 3f 0b 0d 80 3f 49 e6 7f 3f d5 e5 7f 3f
       0.99960095 1.000398 0.9996076 0.9996007
000070 d1 0c 80 3f 16 0d 80 3f d3 e5 7f 3f 12 0d 80 3f
       1.0003911 1.0003994 0.9996006 1.0003989
000080 de e5 7f 3f d4 e5 7f 3f e2 e5 7f 3f cf e5 7f 3f
       0.99960124 0.99960065 0.9996015 0.99960035
000090 c0 0c 80 3f 12 0d 80 3f 20 e6 7f 3f 11 0d 80 3f
       1.0003891 1.0003989 0.9996052 1.0003988
0000a0 de e5 7f 3f d4 e5 7f 3f 15 0d 80 3f f0 e5 7f 3f
       0.99960124 0.99960065 1.0003992 0.9996023
0000b0 ed e5 7f 3f f2 e5 7f 3f d1 e5 7f 3f a4 0c 80 3f
       0.99960214 0.99960244 0.99960047 1.0003858
0000c0 f5 0c 80 3f 11 0d 80 3f 17 0d 80 3f 19 0d 80 3f
       1.0003954 1.0003988 1.0003995 1.0003997
0000d0 19 0d 80 3f 18 0d 80 3f 18 0d 80 3f d8 e5 7f 3f
       1.0003997 1.0003996 1.0003996 0.9996009
0000e0 ce e5 7f 3f 15 e6 7f 3f 0d 0d 80 3f e6 e5 7f 3f
       0.9996003 0.9996045 1.0003983 0.9996017
0000f0 15 0d 80 3f f8 0c 80 3f d8 e5 7f 3f 15 0d 80 3f
       1.0003992 1.0003958 0.9996009 1.0003992
000100 74 0c 80 3f e9 e5 7f 3f d9 e5 7f 3f 17 0d 80 3f
       1.00038 0.9996019 0.99960095 1.0003995
000110 d8 e5 7f 3f ef 0c 80 3f 15 0d 80 3f 7b 0c 80 3f
       0.9996009 1.0003947 1.0003992 1.0003809
000120 14 0d 80 3f d6 e5 7f 3f 19 0d 80 3f cf e5 7f 3f
       1.0003991 0.99960077 1.0003997 0.99960035
000130 12 0d 80 3f 0b 0d 80 3f 12 0d 80 3f d0 e5 7f 3f
       1.0003989 1.000398 1.0003989 0.9996004
000140 df e5 7f 3f 17 0d 80 3f f3 e5 7f 3f cf e5 7f 3f
       0.9996013 1.0003995 0.9996025 0.99960035
000150 d8 e5 7f 3f d4 e5 7f 3f 15 0d 80 3f 07 0d 80 3f
       0.9996009 0.99960065 1.0003992 1.0003976
000160 01 e6 7f 3f da e5 7f 3f 36 e6 7f 3f 0e 0d 80 3f
       0.99960333 0.999601 0.9996065 1.0003984
000170 15 0d 80 3f d6 e5 7f 3f 05 0d 80 3f d7 e5 7f 3f
       1.0003992 0.99960077 1.0003973 0.9996008
000180 17 0d 80 3f da e5 7f 3f 17 0d 80 3f a9 e7 7f 3f
       1.0003995 0.999601 1.0003995 0.9996286
000190 d1 e5 7f 3f cd e5 7f 3f de e5 7f 3f 18 0d 80 3f
       0.99960047 0.99960023 0.99960124 1.0003996
0001a0 18 0d 80 3f 14 0d 80 3f d2 e5 7f 3f d7 e5 7f 3f
       1.0003996 1.0003991 0.9996005 0.9996008
0001b0 19 0d 80 3f 13 0d 80 3f f3 e5 7f 3f d6 e5 7f 3f
       1.0003997 1.000399 0.9996025 0.99960077
0001c0 14 0d 80 3f 11 0d 80 3f 10 0d 80 3f d1 e5 7f 3f
       1.0003991 1.0003988 1.0003986 0.99960047
0001d0 13 0d 80 3f 11 0d 80 3f cc e5 7f 3f 0f 0d 80 3f
       1.000399 1.0003988 0.9996002 1.0003985
0001e0 12 0d 80 3f 0a 0d 80 3f 17 0d 80 3f d0 e5 7f 3f
       1.0003989 1.0003979 1.0003995 0.9996004
0001f0 09 0d 80 3f 0e 0d 80 3f 1a 0d 80 3f 11 0d 80 3f
       1.0003978 1.0003984 1.0003998 1.0003988
000200 cf e5 7f 3f 19 0d 80 3f d6 e5 7f 3f 19 0d 80 3f
       0.99960035 1.0003997 0.99960077 1.0003997
000210 05 0d 80 3f 0d e6 7f 3f 12 0d 80 3f ce e5 7f 3f
       1.0003973 0.99960405 1.0003989 0.9996003
000220 0f 0d 80 3f 29 e7 7f 3f df e5 7f 3f da e5 7f 3f
       1.0003985 0.999621 0.9996013 0.999601
000230 cf e5 7f 3f d0 e5 7f 3f f2 0c 80 3f da e5 7f 3f
       0.99960035 0.9996004 1.000395 0.999601
000240 0c 0d 80 3f ce e5 7f 3f d2 e5 7f 3f 32 e6 7f 3f
       1.0003982 0.9996003 0.9996005 0.99960625
000250 cd e5 7f 3f d3 e5 7f 3f 14 0d 80 3f 18 0d 80 3f
       0.99960023 0.9996006 1.0003991 1.0003996
000260 d1 e5 7f 3f d7 e5 7f 3f 10 0d 80 3f 18 0d 80 3f
       0.99960047 0.9996008 1.0003986 1.0003996
000270 18 0d 80 3f 50 0c 80 3f cb e5 7f 3f 12 0d 80 3f
       1.0003996 1.0003757 0.9996001 1.0003989
000280 e3 e5 7f 3f 1a 0d 80 3f ed 0b 80 3f f4 e5 7f 3f
       0.99960154 1.0003998 1.000364 0.99960256
000290 ff e5 7f 3f 19 0d 80 3f 02 e6 7f 3f 3d e6 7f 3f
       0.9996032 1.0003997 0.9996034 0.9996069
0002a0 d1 e5 7f 3f d3 e5 7f 3f dc e5 7f 3f 15 0d 80 3f
       0.99960047 0.9996006 0.9996011 1.0003992
0002b0 fe e5 7f 3f d0 e5 7f 3f 18 0d 80 3f 02 0d 80 3f
       0.99960315 0.9996004 1.0003996 1.000397
0002c0 00 0d 80 3f 05 0b 80 3f 10 0d 80 3f 15 0d 80 3f
       1.0003967 1.0003363 1.0003986 1.0003992
0002d0 ce e5 7f 3f 09 0d 80 3f fb e5 7f 3f cf e5 7f 3f
       0.9996003 1.0003978 0.999603 0.99960035
0002e0 d2 e5 7f 3f 0a 0d 80 3f 11 0d 80 3f 16 0d 80 3f
       0.9996005 1.0003979 1.0003988 1.0003994
0002f0 19 0d 80 3f 0e 0d 80 3f cf e5 7f 3f d3 e5 7f 3f
       1.0003997 1.0003984 0.99960035 0.9996006
000300 07 0d 80 3f e2 e5 7f 3f fd 0c 80 3f a1 0a 80 3f
       1.0003976 0.9996015 1.0003964 1.0003244
000310 13 0d 80 3f cc e5 7f 3f 15 0d 80 3f 88 e6 7f 3f
       1.000399 0.9996002 1.0003992 0.9996114

bias f4 [200]
000000 36 6c b7 3a 14 33 1e 3a 8f ba b6 3a 45 62 b7 3a
       0.0013994041 0.0006034833 0.0013941097 0.0013991079
000010 d1 66 1d 3a 6a e5 1d 3a 56 67 1d 3a 2e 88 1d 3a
       0.00060043955 0.000602326 0.0006004473 0.0006009367
000020 8e 07 1f 3a 84 2f 25 3a 86 83 1d 3a 89 a2 1d 3a
       0.00060664944 0.0006301331 0.0006008673 0.00060132943
000030 18 13 23 3a 9d 5c b7 3a 09 7c 1d 3a 6b 23 b7 3a
       0.0006220802 0.0013989393 0.00060075574 0.0013972347
000040 f0 e3 1f 3a 10 6f 1d 3a 89 6f b7 3a d8 e2 1d 3a
       0.0006099334 0.00060056243 0.0013995032 0.0006022877
000050 de d8 1d 3a c8 32 b7 3a fe a4 1d 3a 1f 6f b7 3a
       0.00060213904 0.0013976926 0.00060136605 0.0013994909
000060 2a 74 1d 3a 2a 4c b7 3a 3d 15 b7 3a a1 84 1d 3a
       0.00060063845 0.0013984491 0.0013968121 0.0006008838
000070 e2 2d b7 3a a9 34 20 3a 32 ef b6 3a 3e 68 b7 3a
       0.0013975466 0.00061113626 0.0013956784 0.0013992859
000080 7e b1 1d 3a 36 40 1e 3a 86 6e b7 3a 46 64 b7 3a
       0.0006015523 0.000603679 0.001399473 0.0013991676
000090 1e 6b 1d 3a 82 21 21 3a be 6e b7 3a e6 14 20 3a
       0.00060050364 0.00061466557 0.0013994796 0.000610663
0000a0 68 91 1d 3a 58 42 b7 3a 62 0e b7 3a c9 1b b7 3a
       0.0006010742 0.0013981564 0.0013966078 0.0013970073
0000b0 e9 32 b7 3a 70 32 b7 3a 28 31 1e 3a b5 96 1d 3a
       0.0013976964 0.0013976824 0.00060345465 0.0006011532
0000c0 68 7d 1d 3a 5e 25 b7 3a 48 5b b7 3a dd 67 1d 3a
       0.00060077617 0.0013972928 0.0013988996 0.00060045515
0000d0 fe 21 1e 3a f1 9f 24 3a da a3 1d 3a 00 64 b7 3a
       0.0006032287 0.00062799366 0.00060134905 0.0013991594
0000e0 72 a8 1d 3a b0 6b b7 3a be 1a b7 3a e6 c0 1e 3a
       0.0006014175 0.0013993885 0.0013969762 0.0006055966
0000f0 4c 1b 1e 3a d1 f9 a8 3a 68 70 1d 3a 02 6e 1d 3a
       0.0006031289 0.0012891834 0.00060058245 0.0006005467
000100 a8 6a 1d 3a 45 61 b7 3a 58 02 b7 3a 78 b1 1d 3a
       0.0006004968 0.001399078 0.001396249 0.00060155196
000110 ec 53 1e 3a 7a 68 b7 3a 8a 45 b7 3a 4c e3 1d 3a
       0.0006039727 0.0013992928 0.0013982516 0.00060229446
000120 d2 40 b7 3a 6f 41 b7 3a a4 d0 1d 3a 70 7b 1d 3a
       0.001398111 0.0013981293 0.00060201646 0.00060074683
000130 04 66 b7 3a 7e d8 1d 3a 77 a9 1d 3a 28 55 b7 3a
       0.0013992195 0.00060213346 0.0006014327 0.001398717
000140 0e 3a b7 3a 61 d2 b6 3a 57 18 b1 3a 80 47 b7 3a
       0.0013979094 0.0013948196 0.0013511282 0.0013983101
000150 08 6f b7 3a c9 49 b7 3a 25 3b b7 3a 75 5e b7 3a
       0.0013994882 0.0013983782 0.0013979418 0.0013989942
000160 70 94 1d 3a 5a 52 b7 3a 10 58 b7 3a e9 52 b7 3a
       0.00060111936 0.0013986335 0.0013988037 0.0013986501
000170 44 95 1e 3a cc 57 b7 3a ea ff 21 3a 30 5e 24 3a
       0.0006049464 0.0013987957 0.0006179797 0.00062701385
000180 b9 b8 b6 3a 1e c1 1d 3a 82 19 b7 3a b0 80 1d 3a
       0.001394055 0.00060178514 0.0013969394 0.00060082506
000190 2d bf b6 3a 60 cd 1e 3a c9 79 1d 3a 57 61 1d 3a
       0.0013942473 0.0006057825 0.0006007222 0.00060035795
0001a0 ba 54 b7 3a e8 36 b7 3a b6 6f 1d 3a 32 6d b7 3a
       0.0013987042 0.0013978155 0.0006005721 0.0013994335
0001b0 94 70 1e 3a ca b9 1d 3a 8b 6a b7 3a 59 54 1e 3a
       0.0006043997 0.00060167594 0.0013993544 0.00060397905
0001c0 c4 7b 1d 3a 3a f8 1d 3a d2 c7 1d 3a 26 c4 1d 3a
       0.0006007517 0.00060260633 0.000601885 0.0006018303
0001d0 aa 2e 1e 3a aa 1f 1e 3a 95 5e b7 3a 58 6a b7 3a
       0.0006034175 0.000603194 0.001398998 0.0013993485
0001e0 a8 63 1d 3a 6a 4f 1e 3a b0 22 b7 3a 6a 88 1d 3a
       0.00060039246 0.00060390553 0.001397213 0.0006009402
0001f0 5a 95 1d 3a 96 bd 1d 3a 36 4c b7 3a 54 92 1d 3a
       0.000601133 0.0006017325 0.0013984505 0.00060108793
000200 da 2b b7 3a 05 10 b6 3a d3 69 b7 3a 4e 47 b7 3a
       0.0013974861 0.0013890272 0.001399333 0.0013983042
000210 5d 0c 1f 3a f7 67 b7 3a aa 48 b7 3a 98 64 b7 3a
       0.0006067211 0.0013992776 0.0013983448 0.0013991771
000220 06 8e b6 3a a2 71 b7 3a cc aa b6 3a f2 41 b7 3a
       0.0013927824 0.0013995657 0.00139364 0.0013981445
000230 bf 70 b6 3a 86 55 b7 3a f4 3c b7 3a 40 6f b7 3a
       0.0013919099 0.001398728 0.0013979957 0.0013994947
000240 bd f5 1d 3a 94 72 b7 3a ae ee a6 3a 71 9d b6 3a
       0.00060256926 0.0013995939 0.0012735927 0.0013932419
000250 9a 6c b7 3a c2 a0 1d 3a c2 b2 1d 3a 2f c4 1d 3a
       0.0013994158 0.00060130295 0.00060157117 0.00060183083
000260 fa 71 1d 3a 0a 90 1d 3a d4 ac 1e 3a 02 01 1e 3a
       0.00060060585 0.0006010538 0.0006052975 0.0006027372
000270 38 63 1d 3a 29 d2 1d 3a 16 64 1d 3a ef 40 1f 3a
       0.00060038595 0.0006020391 0.00060039887 0.00060750445
000280 94 cb 1d 3a 94 6e 1d 3a 64 cf 1d 3a ad f1 1d 3a
       0.000601941 0.0006005552 0.00060199783 0.0006025087
000290 fa 3c b7 3a c6 93 b6 3a f4 29 b7 3a fa 48 b7 3a
       0.0013979964 0.0013929538 0.0013974295 0.0013983541
0002a0 9d 8b 1d 3a 6a 98 1e 3a a7 6d b7 3a e3 b8 b6 3a
       0.00060098787 0.0006049933 0.0013994471 0.0013940599
0002b0 a0 58 1e 3a 04 3f b7 3a b0 59 b7 3a bc 58 b7 3a
       0.0006040428 0.0013980572 0.0013988521 0.0013988237
0002c0 38 2c b7 3a 01 d5 b6 3a f2 fc 1d 3a 28 9f 1d 3a
       0.001397497 0.0013948978 0.00060267665 0.0006012791
0002d0 a3 60 b7 3a da a0 1d 3a 9b f3 b4 3a 8a 6b 1d 3a
       0.0013990592 0.00060130435 0.001380551 0.0006005099
0002e0 ce 46 b7 3a d1 59 b7 3a 26 89 1d 3a 0a 33 1e 3a
       0.0013982893 0.0013988559 0.00060095114 0.0006034827
0002f0 a1 78 1d 3a bf cb 1d 3a 83 b4 1d 3a 28 60 b7 3a
       0.000600705 0.0006019435 0.0006015973 0.0013990449
000300 30 ba 1d 3a 04 a2 1f 3a 15 30 b7 3a bd cd 1d 3a
       0.0006016819 0.0006089511 0.0013976122 0.0006019732
000310 1f 43 b7 3a ca a2 1d 3a e4 b7 1d 3a 92 ba 1d 3a
       0.0013981796 0.0006013332 0.00060164765 0.0006016876

running_mean f4 [200]
000000 b6 41 b6 3c 03 d7 41 3c aa 41 8f 3c 70 c5 f5 3c
       0.02224813 0.011831048 0.017487366 0.030001372
000010 02 39 97 3c 2a c0 a6 3c 42 20 bb 3c c6 71 d7 3c
       0.0184598 0.020355303 0.02284253 0.026299369
000020 86 ee 9c 3c 44 30 95 3c eb e8 80 3c d2 33 7c 3c
       0.019156706 0.018211491 0.015736064 0.015393214
000030 fb 4e bb 3c ca a1 a8 3c fe 7e 81 3c b3 3b 88 3c
       0.02286481 0.02058496 0.015807625 0.01663003
000040 1d 53 51 3c ea 19 89 3c ce fa da 3c fa 06 d9 3c
       0.012776163 0.01673599 0.026730921 0.026492584
000050 d5 96 9e 3c d0 78 8a 3c 12 85 f8 3c bd 4b dc 3c
       0.019359032 0.016903311 0.03033689 0.026891584
000060 86 62 8a 3c ca 73 a5 3c 23 e0 70 3c 7a 6b d3 3c
       0.016892683 0.020196814 0.014701876 0.025808085
000070 8d 79 a5 3c c8 47 fa 3c b6 a8 b9 3c 20 77 9b 3c
       0.020199561 0.030551806 0.022663455 0.018977702
000080 f8 c1 68 3c fb 7c 96 3c c5 4d 8f 3c da 91 87 3c
       0.014206402 0.018370142 0.017493138 0.01654904
000090 85 98 73 3c c2 d3 b6 3c c7 33 98 3c a4 80 85 3c
       0.014867906 0.02231777 0.018579377 0.016296692
0000a0 80 b2 9f 3c 16 ee 75 3c e2 ec 86 3c c6 b1 7a 3c
       0.019494295 0.015010377 0.016470376 0.015301174
0000b0 0e 6e 72 3c 56 81 7e 3c b5 34 46 3c 35 57 96 3c
       0.014796747 0.015533766 0.012097527 0.01835213
0000c0 85 c3 75 3c fa d3 a3 3c 92 1c 97 3c d3 96 e1 3c
       0.015000229 0.01999854 0.01844624 0.027537739
0000d0 73 1a 75 3c 4e dd 97 3c 70 ab bc 3c cb 03 de 3c
       0.014959919 0.018538143 0.023030967 0.027101418
0000e0 4d 56 52 3c 98 e3 81 3c da df 94 3c d6 20 c9 3c
       0.0128379585 0.015855595 0.018173147 0.02455179
0000f0 ad a5 8c 3c 0e 05 a5 3c 00 db bc 3c ee ee 5d 3c
       0.017168844 0.020144012 0.023053646 0.013545735
000100 3a 65 cf 3c 55 36 80 3c b0 dc e9 3c c5 a4 d4 3c
       0.025316823 0.015650908 0.028547615 0.025957474
000110 36 37 ed 3c aa 27 b1 3c 9d ed fd 3c e7 d8 c3 3c
       0.02895699 0.021625359 0.030997092 0.023907138
000120 83 00 ff 3c ba 9e c9 3c da 72 95 3c ba f9 a5 3c
       0.031128174 0.02461182 0.018243242 0.02026068
000130 56 cf 8c 3c 83 61 74 3c be b4 aa 3c 22 3e 6e 3c
       0.01718871 0.014915827 0.020838138 0.014541181
000140 d6 8f 70 3c 73 3f aa 3c 28 5a 9e 3c 2e 51 41 3c
       0.014682731 0.020782208 0.0193301 0.01179914
000150 6a da 76 3c 45 6d 7d 3c f5 42 43 3c d8 00 69 3c
       0.015066722 0.015467946 0.011917819 0.014221393
000160 5a b5 af 3c 20 9a c6 3c 66 57 91 3c db 7e ad 3c
       0.02144878 0.024243414 0.01774187 0.021178653
000170 dd f9 a8 3c 0e 8c b4 3c 5a 84 c4 3c 48 e4 07 3d
       0.020626957 0.02203944 0.023988891 0.03317669
000180 8b a4 d8 3c eb 02 a5 3c 69 c5 85 3c a9 0c 97 3c
       0.026445648 0.020142993 0.016329484 0.018438654
000190 06 54 c8 3c b2 43 d0 3c d8 2b 91 3c c5 bf dd 3c
       0.024454128 0.025422905 0.017721102 0.027068982
0001a0 fd 6a 8f 3c e8 eb aa 3c 16 27 a7 3c 6e 48 d1 3c
       0.01750707 0.020864442 0.02040438 0.025547232
0001b0 f2 e0 bc 3c 70 87 ab 3c da a0 62 3c e7 82 98 3c
       0.023056481 0.020938605 0.013832295 0.018617107
0001c0 ff 76 9f 3c d0 e8 be 3c 48 76 b9 3c 15 13 8a 3c
       0.019465921 0.023304373 0.022639409 0.016854802
0001d0 6e 97 93 3c 2e 3e 9d 3c 0a 11 57 3c b0 38 2a 3d
       0.018016543 0.019194689 0.013126621 0.041557968
0001e0 bd e6 a9 3c 95 d5 c7 3c b0 72 82 3c 30 de 02 3d
       0.020739907 0.024393836 0.015923828 0.031950176
0001f0 20 7a 98 3c e8 8c 1b 3d 03 91 b1 3c d6 a2 6d 3c
       0.018612921 0.037976176 0.021675592 0.014504155
000200 55 69 ce 3c ba 53 8e 3c 15 5f a1 3c cb 39 da 3c
       0.02519671 0.017373908 0.019698659 0.026638886
000210 9c 43 a4 3c 1a 15 77 3c f8 15 99 3c c0 54 cf 3c
       0.02005177 0.015080715 0.018687233 0.025308967
000220 17 72 c1 3c 2b 78 a7 3c ae cd 87 3c 48 ea f4 3c
       0.023613973 0.020443043 0.016577568 0.02989687
000230 f1 69 80 3c 68 82 94 3c d6 f1 d3 3c 8a f5 a9 3c
       0.015675517 0.018128589 0.025872152 0.020746965
000240 f7 21 a8 3c 7e db 8d 3c 33 2e 55 3c 38 6a 8a 3c
       0.020524008 0.017316576 0.013011503 0.016896352
000250 05 b0 8c 3c b6 ab 64 3c 82 6b 76 3c ea f9 b7 3c
       0.017173776 0.013956955 0.01504028 0.022458035
000260 da f9 99 3c 66 3a 1e 3c 13 7c 62 3c 13 e7 99 3c
       0.018795896 0.009657478 0.013823527 0.018786943
000270 9f 61 96 3c 18 0d 12 3d 8c 9c 83 3c 46 f6 ec 3c
       0.018357096 0.03565702 0.016065858 0.028926026
000280 d6 82 4c 3c 72 32 be 3c 93 70 f4 3c f0 01 3d 3c
       0.012482366 0.023217414 0.029838836 0.0115361065
000290 45 43 93 3c f5 f6 9b 3c 28 95 5c 3c 2b 98 56 3c
       0.017976413 0.019038657 0.013463296 0.013097803
0002a0 82 68 c6 3c 2e f8 b3 3c e4 2c a5 3c e3 0a a5 3c
       0.024219755 0.021968927 0.020163007 0.020146793
0002b0 c0 f3 6d 3c 26 92 97 3c 6d c0 ea 3c 71 40 ba 3c
       0.014523447 0.018502306 0.028656209 0.022735806
0002c0 95 7a ac 3c 8a 64 9a 3c ca 68 bf 3c 5a 85 78 3c
       0.021054545 0.018846769 0.023365397 0.015168512
0002d0 d8 66 87 3c 4e 69 a8 3c ff d3 3b 3c f3 34 7d 3c
       0.016528532 0.020558026 0.011464118 0.015454519
0002e0 86 8e e9 3c 4a d5 70 3c 9f 2b 86 3c e5 b0 c7 3c
       0.028510343 0.01469929 0.016378222 0.024376342
0002f0 e2 92 95 3c c6 cc 3e 3c ae 59 7e 3c 4d 78 83 3c
       0.018258516 0.0116455015 0.015524311 0.016048575
000300 f2 20 84 3c f6 cf 76 3c 7a 98 a4 3c 18 79 8d 3c
       0.01612899 0.01506423 0.020092238 0.017269656
000310 aa af 89 3c d0 c5 b8 3c c5 68 94 3c 68 c8 45 3c
       0.016807396 0.022555262 0.018116364 0.012071706

running_var f4 [200]
000000 6f dc 68 3f f6 87 67 3f 53 46 6a 3f be c6 6c 3f
       0.90961355 0.90441835 0.91513556 0.92490757
000010 32 ee 68 3f 12 e8 68 3f 94 a3 6b 3f 9b 6e 6c 3f
       0.9098846 0.9097911 0.92046475 0.9235627
000020 6d 5b 69 3f 73 da 68 3f 5f 00 68 3f 92 92 67 3f
       0.9115513 0.9095833 0.90625566 0.90458024
000030 38 19 69 3f e0 9c 69 3f a2 98 67 3f 8d 3a 68 3f
       0.91054106 0.91255 0.90467274 0.9071434
000040 d5 47 67 3f 09 d1 67 3f e6 de 6c 3f f7 53 6a 3f
       0.9034398 0.9055334 0.92527616 0.9153437
000050 18 81 68 3f dd da 67 3f 86 fe 69 3f 28 11 6a 3f
       0.9082198 0.90568334 0.91403997 0.9143243
000060 76 f5 67 3f 4b 25 6b 3f b3 dc 67 3f 7b b6 6c 3f
       0.9060892 0.9185378 0.90571135 0.92465943
000070 3c df 6a 3f f4 bb 6c 3f 56 55 68 3f fa c1 67 3f
       0.9174688 0.92474294 0.9075521 0.9053036
000080 26 70 67 3f 0e b0 67 3f 9d 66 68 3f 84 f2 67 3f
       0.904055 0.90503013 0.90781575 0.90604424
000090 ba 6d 67 3f f7 5d 6c 3f a9 e5 67 3f d4 24 68 3f
       0.90401804 0.9233088 0.9058481 0.90681195
0000a0 49 ce 6a 3f fe f6 67 3f bb 10 69 3f c8 0f 68 3f
       0.91721016 0.90611255 0.91041154 0.9064908
0000b0 a8 60 67 3f a0 9c 67 3f 71 2b 67 3f 33 a9 68 3f
       0.9038186 0.90473366 0.9030066 0.9088318
0000c0 b1 d9 68 3f a0 4b 69 3f fd e9 68 3f 19 5a 69 3f
       0.9095717 0.9113102 0.9098204 0.91153103
0000d0 3d 21 68 3f 4f 35 68 3f a0 8d 6a 3f e2 27 6a 3f
       0.9067572 0.9070634 0.9162235 0.91467106
0000e0 a3 e5 66 3f 63 53 69 3f a2 ce 68 3f e3 e4 6a 3f
       0.9019415 0.91142863 0.90940297 0.91755503
0000f0 5a 3f 68 3f 60 fd 68 3f 8b 25 6c 3f c3 c2 67 3f
       0.90721667 0.9101162 0.92244786 0.9053156
000100 b6 01 69 3f 30 bb 68 3f 97 c2 69 3f 95 3b 70 3f
       0.91018236 0.90910625 0.91312546 0.93840915
000110 41 c3 6a 3f 13 1b 6b 3f 3f b2 6a 3f b8 26 6b 3f
       0.91704184 0.91838187 0.9167823 0.91855955
000120 71 47 6d 3f e7 ac 6a 3f b1 6b 69 3f 40 7a 69 3f
       0.92687136 0.9167008 0.9117995 0.91202164
000130 28 b2 67 3f f7 65 67 3f f8 15 6d 3f 44 72 68 3f
       0.9050622 0.9038996 0.92611647 0.90799356
000140 1f 86 67 3f 5d 74 6b 3f 92 d1 68 3f 58 7b 67 3f
       0.9043903 0.9197443 0.9094478 0.9042258
000150 f1 98 67 3f 1b 94 67 3f ac f4 66 3f 7c a8 67 3f
       0.90467745 0.90460366 0.9021709 0.9049146
000160 9d 68 68 3f be f3 68 3f dc 03 68 3f ce cf 6c 3f
       0.9078463 0.9099692 0.9063089 0.92504585
000170 aa 51 68 3f 76 8c 68 3f ae e3 6d 3f 3c 4c 6c 3f
       0.9074961 0.90839326 0.92925537 0.92303824
000180 e5 1a 6a 3f 7b cd 6b 3f 63 98 67 3f 3a b3 68 3f
       0.9144729 0.92110413 0.904669 0.9089848
000190 82 a6 6c 3f 39 25 69 3f 62 1d 68 3f bc 04 6f 3f
       0.9244157 0.9107242 0.90669835 0.933666
0001a0 fc ff 68 3f 43 0c 6d 3f 2a d5 69 3f 86 2c 6b 3f
       0.910156 0.92596835 0.9134089 0.9186481
0001b0 55 b8 68 3f 7f 45 6a 3f 21 10 68 3f 12 ca 68 3f
       0.9090627 0.9151229 0.9064961 0.90933335
0001c0 e7 99 68 3f 47 1f 6d 3f aa 94 6b 3f 37 91 67 3f
       0.90859836 0.9262585 0.9202372 0.90455955
0001d0 06 43 68 3f 77 47 6a 3f 96 97 67 3f 6b b5 6c 3f
       0.9072727 0.91515297 0.90465677 0.9246432
0001e0 a3 57 6b 3f d8 f0 6d 3f e7 92 67 3f 5d e0 70 3f
       0.919306 0.92945623 0.9045853 0.9409235
0001f0 1f 58 6a 3f f1 3b 6f 3f 2d ae 68 3f 08 ad 67 3f
       0.9154071 0.9345084 0.9089077 0.904984
000200 9e b3 69 3f 46 92 69 3f d1 b7 68 3f cb 91 6b 3f
       0.912897 0.9123882 0.9090548 0.9201934
000210 ac ec 67 3f e7 7d 67 3f 79 d9 68 3f a0 4b 70 3f
       0.9059551 0.90426487 0.90956837 0.93865395
000220 0c 5e 6b 3f 43 c4 69 3f fd ed 69 3f 58 fe 6a 3f
       0.9194038 0.91315097 0.91378766 0.9179435
000230 2a 20 68 3f ec 40 68 3f f2 39 6c 3f 62 94 6a 3f
       0.9067408 0.9072406 0.9227592 0.91632664
000240 e5 d2 68 3f 3d ae 68 3f 9e 47 68 3f 7f 93 68 3f
       0.909468 0.90890867 0.9073428 0.9085006
000250 e5 28 6a 3f af 80 67 3f 95 d3 67 3f 0b f7 69 3f
       0.9146865 0.9043073 0.90557224 0.9139258
000260 f9 ab 6a 3f 33 fa 66 3f 5d 84 67 3f 2d 60 68 3f
       0.9166866 0.90225524 0.90436345 0.9077175
000270 c9 fd 68 3f 13 ba 6c 3f cd f1 67 3f 2d 9e 70 3f
       0.91012245 0.92471427 0.90603334 0.9399136
000280 c6 28 68 3f 52 9f 6c 3f 76 13 74 3f fe 27 67 3f
       0.90687215 0.92430604 0.95342195 0.902954
000290 ed d0 67 3f 3b 94 68 3f 97 44 67 3f 2d 7a 68 3f
       0.9055317 0.9085118 0.90339035 0.90811425
0002a0 ce 73 69 3f 9a f2 6a 3f 4f a1 68 3f 3a 22 68 3f
       0.9119233 0.9177643 0.9087114 0.90677226
0002b0 1c 6c 67 3f f3 60 6b 3f df b4 6b 3f 55 84 6d 3f
       0.90399337 0.9194481 0.9207286 0.9278005
0002c0 d7 21 6b 3f e8 51 68 3f 8c 60 6d 3f 4b a1 67 3f
       0.9184851 0.9074998 0.92725444 0.9048049
0002d0 5e d3 68 3f 0a 82 68 3f f7 07 67 3f d6 68 68 3f
       0.9094752 0.90823424 0.9024653 0.90784967
0002e0 79 50 70 3f 6a 7a 67 3f f2 3d 68 3f 8e 36 69 3f
       0.9387279 0.90421164 0.9071952 0.9109887
0002f0 0a fe 68 3f ed 12 67 3f 27 96 67 3f 6e 27 69 3f
       0.9101263 0.90263253 0.9046349 0.9107579
000300 6f 1f 67 3f ca 58 69 3f cb 8d 6a 3f e4 14 69 3f
       0.9028234 0.91151106 0.9162261 0.910475
000310 09 fb 68 3f bc 90 68 3f ba cf 67 3f 44 4a 67 3f
       0.9100805 0.9084585 0.9055134 0.90347695

weight f4 [100, 200]
000000 98 10 e9 bc 2f 05 84 3d be 5e 09 bd 93 ac 5e bc
       -0.028450295 0.06446301 -0.03353762 -0.01359095
000010 76 ec 12 bd bf c8 72 3c d4 6b cd bc 6f 4e db 3c
       -0.035870038 0.014818369 -0.02507583 0.026770798
000020 7a 66 8c 3d 8c 2f 5b bd 82 fc 3b 3d 4f e8 94 bc
       0.06855483 -0.05351214 0.045895107 -0.01817718
000030 6c 1d 91 bd 83 c1 fe 3c 3f 5a 43 bd 9a 06 2c 3d
       -0.0708569 0.031098133 -0.047693487 0.041998483
000040 fb 63 43 bc c2 6e 30 bd d7 98 7a bd b9 bb 7f 3c
       -0.011925693 -0.043074377 -0.061180916 0.015608721
000050 0a 8d 8b bd 00 91 1d 3d 1a 0f db 3c 30 28 74 bd
       -0.068140104 0.03846836 0.0267406 -0.05960864
000060 c0 d2 15 3d 1e b4 62 bd 3c 31 de 3b 0f e1 a3 bc
       0.03657794 -0.055347554 0.0067807715 -0.020004777
000070 55 2a 43 3d 14 55 73 bd d6 66 b9 bc b2 a6 d0 bc
       0.047647793 -0.05940731 -0.022632044 -0.025470112
000080 d6 54 d4 bb 34 ed dd 3b b0 b0 36 bd 4b 57 17 3c
       -0.00647984 0.0067726616 -0.044602096 0.009237121
000090 7f 3b 38 3b ff 5f 11 bd 73 6d 86 3c f0 5e 56 3d
       0.0028111634 -0.03549194 0.016409611 0.052336633
0000a0 28 9d 16 3d 02 86 b7 3c 6e fe fb bc a0 44 53 bd
       0.03677097 0.022402767 -0.03076097 -0.051579118
0000b0 30 aa 2b 3d 00 1c 39 3c e1 0d a7 3b df 29 15 3d
       0.04191035 0.01129818 0.00509809 0.036416885
0000c0 28 05 07 bd 96 91 90 bd 10 73 48 bd 09 68 88 bd
       -0.0329639 -0.07059018 -0.048937857 -0.06660468
0000d0 94 e2 35 3d fa f2 31 3d 08 26 03 bd 76 09 7d bc
       0.044405535 0.04344461 -0.03201869 -0.01544415
0000e0 b7 6b 78 bc 9e cd ee bc 66 12 45 bd 1d 81 b9 3c
       -0.0151624 -0.02915078 -0.04811325 0.022644574
0000f0 17 eb ca bc fa 08 3b bd 50 9f 5f 3c 63 d5 eb bc
       -0.024770303 -0.045662858 0.013648823 -0.028788274
000100 d8 16 5f 3c e6 67 15 bb 25 de bd 3c 8f 58 40 3d
       0.013616286 -0.0022797524 0.023177216 0.046959456
000110 68 37 7d bd ca 01 08 bd ee c4 8e 3d 59 a5 66 3b
       -0.061820418 -0.03320483 0.06971155 0.003519377
000120 e9 0e 38 bc 2f 67 66 3d 1b df 7d 3d c3 42 c8 3c
       -0.011234024 0.056250747 0.061980348 0.024445897
000130 65 99 65 bd 3d 58 89 3d 81 49 82 bd 50 fb 8e bd
       -0.05605449 0.06706283 -0.06361676 -0.06981528
000140 13 fa 28 3c 97 79 a6 bc 2c f0 85 bd aa bf 62 3d
       0.010313529 -0.02032165 -0.0653995 0.055358566
000150 61 f2 12 3c 41 d2 1c bd 56 b9 c7 3c a5 65 54 3d
       0.00896892 -0.03828645 0.024380367 0.05185475
000160 f9 35 00 bc 15 5b 57 3d 01 02 35 3d 63 28 4b 3c
       -0.007825368 0.052577097 0.044191364 0.012399766
000170 da 27 18 bd b2 f7 5b bd 54 b2 23 ba 16 6d 97 bc
       -0.03714738 -0.053703018 -0.00062445295 -0.018484633
000180 5c c5 81 bd b6 ca 86 bd d5 75 39 bd 63 2a 7c 3a
       -0.063364714 -0.06581633 -0.04527839 0.0009619353
000190 3c 6c 01 bd 58 ba 71 bd d4 96 41 bc 6c 6d fc bc
       -0.03159736 -0.059015602 -0.011815745 -0.030813895
0001a0 e2 8d 88 bc dc ce 30 3d 98 5a 26 3d 47 5c 3b 3d
       -0.016669217 0.043166026 0.04061374 0.0457423
0001b0 2b ad 8f 3d 63 e3 96 3b 4a 9c 1b bd d6 31 e5 bb
       0.07015451 0.0046047433 -0.037990846 -0.0069944663
0001c0 1e b2 32 3c bd 73 cb bc 2c 6c 65 3d e5 94 16 3d
       0.010906724 -0.024835462 0.056011364 0.03676309
0001d0 47 ae 53 bd 5e cd ce 3b f0 36 ce 3b d2 92 b6 3c
       -0.051679876 0.006311103 0.00629317 0.022286806
0001e0 79 80 3f bd 21 42 8f 3d 9e 42 c5 bc 33 32 dd 3c
       -0.04675338 0.06995035 -0.024079617 0.027001476
0001f0 71 ef 10 bd 17 24 c8 3c 60 9b c5 bc c8 94 17 bd
       -0.0353846 0.024431271 -0.02412194 -0.037007123
000200 4e bd 80 bd 61 bf c8 3c db 7b 18 3c 73 5d b5 3c
       -0.06286107 0.02450532 0.009306873 0.022139287
000210 5d 70 1d bd f2 25 70 3c 69 a9 e9 bc c7 58 a4 3c
       -0.038437236 0.014657484 -0.028523164 0.020061864
000220 1d 02 88 3d 44 12 71 bd 5b 5e e1 3c 21 72 39 bd
       0.06641028 -0.05885531 0.027510813 -0.045274857
000230 b4 66 b4 3c c9 83 76 bc ab 37 e9 3c ad c5 59 bd
       0.022021629 -0.0150460685 0.028468927 -0.053167034
000240 7c 50 4a 3d a8 38 25 3d 4d 85 45 bd 93 61 4b bd
       0.049393162 0.040337235 -0.04822283 -0.0496536
000250 16 e2 1f 3d b3 ea 64 bd cf 69 e5 3c e6 86 0d bd
       0.03903397 -0.05588789 0.028004555 -0.034552477
000260 f6 f4 80 bd 28 c5 b6 3c 86 40 f6 bc b6 91 3d bd
       -0.062967226 0.022310808 -0.030060064 -0.04628154
000270 ff 9d af 3c c0 ee 04 3d 4f 76 68 3d 9c 6a 8e 3d
       0.021437643 0.032454252 0.056753453 0.06953928
000280 c2 b7 cb 3c 95 2a a4 bc c1 0f 4d bc a0 0d 59 3d
       0.024867896 -0.020039836 -0.012515963 0.05299151
000290 c3 a9 62 bd d9 af 51 3d 7c 02 04 3d 1d 54 db 3c
       -0.05533768 0.051193092 0.03222893 0.026773507
0002a0 ea 65 b6 3c 83 de 6e bd ea 25 ea 3c be 14 97 bb
       0.022265393 -0.058317672 0.028582532 -0.004610627
0002b0 c3 2e ac 3a f6 e5 04 bd bf c9 4f 3d 7d 03 3b bc
       0.0013136495 -0.03244587 0.05072951 -0.011414406
0002c0 7d bd 7d 3a 2c d5 75 bd 8b 08 60 3d a5 de 84 bd
       0.000967942 -0.06001775 0.054695647 -0.064877786
0002d0 93 aa 31 3d ff 92 00 3d b8 14 2a 3c cc 03 8d bd
       0.043375563 0.031390186 0.010380916 -0.0688549
0002e0 69 20 07 bd 3e 09 8d bb ea e3 57 bd 62 d9 bd bc
       -0.032989893 -0.0043040803 -0.05270759 -0.023174945
0002f0 98 b3 7f bc 41 22 b8 bc e3 16 4b 3d c1 34 85 3d
       -0.015606783 -0.022477271 0.049582373 0.06504203
000300 aa 1e 00 bd 5c 2e 17 3d 22 74 9e 3b 82 43 55 3d
       -0.031279244 0.036909446 0.0048356215 0.052066334
000310 82 fc 7a bd f0 1c 11 bd c3 6f 6e bc b2 49 8a 3d
       -0.061275966 -0.035427988 -0.014553013 0.067523375
000320 ee 99 63 3d 9b ed 99 bc 61 e9 30 bd ad 34 12 bd
       0.05556672 -0.018790057 -0.043191317 -0.035694767
000330 bf f9 07 3c cf a1 7f 3c c4 28 14 bd 46 f3 9f 3c
       0.00829929 0.015602543 -0.03617169 0.019525182
000340 1a d7 fe bb 5b 2f 59 3d 87 90 d9 bc 01 01 21 bd
       -0.007777107 0.053023677 -0.026558174 -0.039307598
000350 18 96 38 3c c3 ea 54 3b 36 30 25 3d 8c 8e 8c 3d
       0.011266254 0.0032488562 0.04032918 0.06863126
000360 29 8d ec bc ab 7b 87 3d 34 6a 06 3d 80 f0 74 3d
       -0.028875904 0.06615385 0.032816127 0.05979967
000370 d4 b5 b5 3c 5c a7 33 bc 46 86 25 3c b8 06 c2 3a
       0.022181429 -0.010965195 0.010102814 0.0014803028
000380 86 85 57 bd 82 14 c4 bc c2 00 5d 3d f3 78 5c 3c
       -0.052617572 -0.02393556 0.0539558 0.013456571
000390 4e aa 96 3c c2 31 d4 3b 59 3f 80 3c 5e 3d 4b bd
       0.018391754 0.006475658 0.015655207 -0.04961907
0003a0 d3 b2 53 bc 6f 0c 74 bc 2d c0 c2 bc 79 6d 35 bd
       -0.012921053 -0.0148955425 -0.023773277 -0.044293854
0003b0 96 7a e4 bb b2 de 08 bb fc ab c0 bc a8 da 90 bc
       -0.006972621 -0.002088469 -0.023519509 -0.017682388
0003c0 c7 09 b5 bc 04 52 32 bc 28 db 68 bd 4f 7f 6a 3d
       -0.022099389 -0.010883812 -0.05684963 0.057250317
0003d0 85 10 19 bd 61 7b 18 3d 73 4c 7d bd ea da 39 bb
       -0.03736927 0.03722704 -0.061840486 -0.0028359243
0003e0 99 d1 c8 bb 2a b9 74 bd 2d 6a 85 3b 6f 8c 56 bd
       -0.0061285016 -0.0597469 0.004071495 -0.05238002
0003f0 81 a0 c9 3c f5 9e 33 3d b1 9d 2c bc c7 7d 46 3c
       0.024612667 0.043852765 -0.010535643 0.012114949

weight f4 [100]
000000 de 0a 80 3f e4 e5 7f 3f 01 0d 80 3f cc e5 7f 3f
       1.0003316 0.9996016 1.0003968 0.9996002
000010 c1 e8 7f 3f b3 fb 7f 3f 0e 0d 80 3f d8 e5 7f 3f
       0.9996453 0.9999344 1.0003984 0.9996009
000020 d5 e5 7f 3f 1b 0d 80 3f cf e5 7f 3f b1 e6 7f 3f
       0.9996007 1.0004 0.99960035 0.9996138
000030 10 0d 80 3f 9c e7 7f 3f cf e5 7f 3f cb e5 7f 3f
       1.0003986 0.9996278 0.99960035 0.9996001
000040 e6 0c 80 3f 9d 0c 80 3f d4 e5 7f 3f d4 e5 7f 3f
       1.0003936 1.0003849 0.99960065 0.99960065
000050 19 0d 80 3f 8c e6 7f 3f d2 e5 7f 3f a4 0c 80 3f
       1.0003997 0.9996116 0.9996005 1.0003858
000060 e6 e5 7f 3f 19 0d 80 3f d5 e5 7f 3f a6 0c 80 3f
       0.9996017 1.0003997 0.9996007 1.000386
000070 cc e5 7f 3f b1 0c 80 3f bd 0c 80 3f 17 0d 80 3f
       0.9996002 1.0003873 1.0003887 1.0003995
000080 cd e5 7f 3f 12 e9 7f 3f 16 0d 80 3f dc e5 7f 3f
       0.99960023 0.9996501 1.0003994 0.9996011
000090 18 0d 80 3f f4 e5 7f 3f d2 e5 7f 3f 12 0d 80 3f
       1.0003996 0.99960256 0.9996005 1.0003989
0000a0 85 e6 7f 3f 0a 0d 80 3f 17 0d 80 3f 0b 0d 80 3f
       0.9996112 1.0003979 1.0003995 1.000398
0000b0 1a 0d 80 3f d1 e5 7f 3f 09 0d 80 3f 07 0d 80 3f
       1.0003998 0.99960047 1.0003978 1.0003976
0000c0 ac 0c 80 3f d8 e5 7f 3f e3 e5 7f 3f 1b 0d 80 3f
       1.0003867 0.9996009 0.99960154 1.0004
0000d0 68 0c 80 3f 01 0d 80 3f 8b 0c 80 3f e9 e5 7f 3f
       1.0003786 1.0003968 1.0003828 0.9996019
0000e0 16 0d 80 3f 1a 0d 80 3f 06 0d 80 3f e6 e5 7f 3f
       1.0003994 1.0003998 1.0003974 0.9996017
0000f0 0d 0d 80 3f 99 e6 7f 3f 09 0d 80 3f 05 0d 80 3f
       1.0003983 0.9996124 1.0003978 1.0003973
000100 f3 e5 7f 3f 17 0d 80 3f d1 e5 7f 3f 15 0d 80 3f
       0.9996025 1.0003995 0.99960047 1.0003992
000110 19 0d 80 3f f7 e5 7f 3f 17 0d 80 3f f6 0c 80 3f
       1.0003997 0.99960274 1.0003995 1.0003955
000120 17 0d 80 3f 13 e6 7f 3f 10 0d 80 3f 17 0d 80 3f
       1.0003995 0.9996044 1.0003986 1.0003995
000130 7d e8 7f 3f da e5 7f 3f 0b e6 7f 3f cd e5 7f 3f
       0.99964124 0.999601 0.9996039 0.99960023
000140 83 09 80 3f e0 e5 7f 3f fd 0c 80 3f a2 0b 80 3f
       1.0002903 0.99960136 1.0003964 1.000355
000150 d9 e5 7f 3f f0 0c 80 3f cd e5 7f 3f d7 e5 7f 3f
       0.99960095 1.0003948 0.99960023 0.9996008
000160 54 0c 80 3f e8 e5 7f 3f 19 0d 80 3f ee e5 7f 3f
       1.0003762 0.99960184 1.0003997 0.9996022
000170 cb e5 7f 3f d3 e5 7f 3f cd e5 7f 3f f8 0c 80 3f
       0.9996001 0.9996006 0.99960023 1.0003958
000180 cc e5 7f 3f e0 e5 7f 3f 49 0c 80 3f d5 e5 7f 3f
       0.9996002 0.99960136 1.0003749 0.9996007

bias f4 [100]
000000 e2 b1 3d 3a cd ff 1e 3a dd af b6 3a a4 5e b7 3a
       0.00072362844 0.0006065339 0.0013937909 0.0013989997
000010 44 4b 1f 3a 3e 2b 35 3a 87 54 24 3a 2e 22 b6 3a
       0.0006076584 0.00069110456 0.0006268699 0.0013895684
000020 12 8b a7 3a b2 68 b7 3a 1a 44 b7 3a 77 b3 b3 3a
       0.0012782535 0.0013992994 0.0013982088 0.0013710101
000030 9f ef b2 3a 0f 19 28 3a 65 7c 1d 3a 75 7f 1d 3a
       0.0013651735 0.00064124254 0.0006007611 0.0006008067
000040 64 3f b5 3a bb ab 46 3a 44 5a b6 3a 9c af 1d 3a
       0.0013828096 0.00075786904 0.0013912399 0.00060152425
000050 a0 fa b6 3a 73 83 70 3a b4 ff b5 3a 7a b4 2c 3a
       0.001396019 0.0009174861 0.001388541 0.00065881724
000060 64 ce b6 3a 77 f0 9f 3a d2 f6 b5 3a 8c ea 3d 3a
       0.0013947007 0.0012202401 0.0013882762 0.0007244728
000070 39 5d b7 3a ee 18 20 3a 52 43 25 3a b2 13 b7 3a
       0.0013989575 0.00061072304 0.0006304282 0.0013967662
000080 b2 6e b7 3a 08 d2 98 3a f4 d4 1d 3a 1a 0c 1f 3a
       0.0013994782 0.0011659274 0.0006020807 0.0006067172
000090 8c 61 b7 3a fb 00 af 3a a4 28 b7 3a a8 14 b7 3a
       0.0013990863 0.0013351733 0.0013973904 0.0013967948
0000a0 b6 2e b7 3a 2f d5 1d 3a 1f ae b5 3a 34 a9 b0 3a
       0.0013975713 0.00060208415 0.0013861096 0.0013478161
0000b0 92 57 b7 3a 94 4f b7 3a c8 3e 20 3a 3c 62 1f 3a
       0.001398789 0.0013985508 0.0006112871 0.0006080007
0000c0 40 b4 1d 3a 62 69 a7 3a 3c ba 1d 3a 50 70 1d 3a
       0.0006015934 0.0012772495 0.0006016826 0.00060058106
0000d0 1d 4b 1e 3a a4 15 1f 3a 7a 2d b2 3a 3b 76 b6 3a
       0.00060384144 0.00060685934 0.0013593875 0.0013920733
0000e0 b1 c1 b5 3a 31 aa 21 3a a6 63 1e 3a 96 13 21 3a
       0.0013866929 0.0006167023 0.00060420705 0.0006144581
0000f0 20 42 b7 3a 0c eb 23 3a da b5 30 3a be 8d 38 3a
       0.0013981499 0.0006252981 0.0006740965 0.0007040164
000100 c0 4b 1e 3a 91 45 b5 3a 9a c6 b6 3a 23 7e 1d 3a
       0.00060385093 0.0013829937 0.0013944686 0.00060078705
000110 81 96 1d 3a dc fd b6 3a e3 85 1e 3a 9c 6c 1f 3a
       0.00060115015 0.0013961154 0.00060471724 0.0006081553
000120 79 09 b7 3a 78 90 1d 3a ef cf b5 3a 53 77 1d 3a
       0.0013964615 0.0006010602 0.0013871173 0.00060068554
000130 5e eb a4 3a 48 6f b7 3a c6 0d 1e 3a 99 09 b7 3a
       0.0012582352 0.0013994956 0.0006029274 0.0013964652
000140 77 24 b2 3a fe 82 b6 3a 46 b0 1f 3a 12 1a 35 3a
       0.001359119 0.0013924537 0.00060916354 0.0006908487
000150 40 1d 1e 3a ee 28 b7 3a ff 6b b7 3a 76 33 25 3a
       0.000603158 0.001397399 0.0013993977 0.0006301919
000160 68 d9 29 3a 70 ef b5 3a f3 e0 1d 3a da 8c b4 3a
       0.00064792344 0.0013880562 0.0006022595 0.0013774887
000170 e0 7d 1d 3a 63 6f b6 3a 24 25 1e 3a d4 0f b7 3a
       0.00060078315 0.0013918694 0.0006032756 0.0013966509
000180 74 62 1d 3a e8 4e 30 3a b1 c2 b0 3a 86 44 b7 3a
       0.00060037454 0.0006725625 0.0013485757 0.0013982214

running_mean f4 [100]
000000 3a ac b5 3c 05 8f cd 3c f2 7a b3 3c 63 87 84 3c
       0.02217685 0.025092611 0.02190921 0.016177839
000010 50 95 f2 3c 27 b0 b2 3c ac f6 be 3c 2d e5 83 3c
       0.029612213 0.021812512 0.023310982 0.01610049
000020 da 5a b2 3c 24 50 bf 3c a0 04 77 3c 86 83 b1 3c
       0.021771837 0.023353644 0.015076786 0.02166916
000030 06 55 cc 3c 2e fe 92 3c 0d f2 8b 3c f3 8e 61 3c
       0.024942886 0.017943468 0.017083192 0.013766992
000040 2f 01 9e 3c fb a6 87 3c 03 2e 2d 3d 66 01 9a 3c
       0.019287674 0.016559115 0.04228021 0.018799495
000050 dd 53 cf 3c 06 8d df 3c 9e fb c0 3c 66 27 df 3c
       0.025308544 0.027288925 0.02355748 0.027240466
000060 20 21 cf 3c 1b 62 b3 3c 32 30 d2 3c 6e 8f ed 3c
       0.02528435 0.021897366 0.025657747 0.028999057
000070 12 9f 98 3c 40 2a bd 3c 3c 94 ba 3c f8 19 b4 3c
       0.018630538 0.023091435 0.022775762 0.02198504
000080 03 ad c1 3c 9a 2f a9 3c 0a 48 9c 3c ca a7 d3 3c
       0.023642069 0.020652581 0.01907732 0.025836844
000090 63 c3 8e 3c 13 e0 a6 3c 66 42 ad 3c 7e 8c b0 3c
       0.017427152 0.020370519 0.021149825 0.021551367
0000a0 85 60 df 3c 7b 19 bf 3c 93 6f b2 3c 8d 8a c3 3c
       0.027267704 0.02332758 0.021781718 0.023869777
0000b0 26 85 a1 3c 96 07 c9 3c a2 48 13 3d 44 17 8e 3c
       0.01971681 0.02453975 0.03595794 0.017345078
0000c0 49 cc cc 3c f8 5d c5 3c 7e 90 a4 3c 59 5e 93 3c
       0.024999755 0.02409266 0.02008843 0.017989324
0000d0 e5 c1 09 3d 76 f7 b0 3c c3 dd 92 3c b8 64 c6 3c
       0.033632178 0.021602374 0.01792801 0.024217948
0000e0 85 37 dc 3c 5e 11 8f 3c 62 81 cb 3c 96 58 e0 3c
       0.026881943 0.017464336 0.024841968 0.027385991
0000f0 a6 9d ae 3c 5d 73 05 3d 63 c4 b8 3c 00 ab 8b 3c
       0.021315407 0.032580722 0.022554582 0.017049313
000100 b3 ad a3 3c 8b 4a af 3c 71 fe a3 3c 87 fe ae 3c
       0.019980287 0.02139785 0.020018788 0.021361602
000110 6e 36 b6 3c bb c2 ca 3c c0 a5 9f 3c 24 c2 92 3c
       0.022242751 0.024751058 0.019488215 0.01791484
000120 37 cd 04 3d 8b af 82 3c 74 2f a1 3c 32 48 c3 3c
       0.03242227 0.015952846 0.019675948 0.023838136
000130 48 c5 9f 3c de 68 a0 3c 70 d3 b7 3c e0 98 92 3c
       0.01950325 0.019581255 0.022439688 0.017895162
000140 3f 29 bd 3c 1a 77 c0 3c 3e 04 e3 3c 33 ca ab 3c
       0.023090957 0.023494292 0.027711984 0.02097044
000150 98 b5 c4 3c d9 ae 9a 3c 83 da aa 3c 63 b0 a5 3c
       0.024012372 0.018882202 0.020856148 0.02022571
000160 aa b4 94 3c f0 09 6c 3c ad 86 e2 3c bc d0 ab 3c
       0.018152554 0.014406666 0.027652109 0.020973556
000170 36 91 73 3c 09 65 ba 3c 48 ee 94 3c 42 3f 32 3c
       0.014866164 0.022753255 0.018180028 0.01087934
000180 ab cd 98 3c bb 3e a3 3c fa e1 a0 3c 5a f5 ac 3c
       0.018652758 0.019927373 0.019639004 0.021113086
